wakewordexample/Eugene.onnx (onnx, 205430 bytes, 9 tensors)

layer1.weight f4 [32, 1536]
-0.001211485 -0.0020436978 0.0015403446 -0.01676593 -0.0088980235 -0.01775509 -0.00017314608 0.015569503
-0.00383499 0.005765787 -0.008357321 -0.017641963 0.009817752 0.02674479 -0.028894791 -0.029280718
0.013596988 0.01752438 -0.018068055 -0.0116258655 -0.010452015 -0.020561963 -0.013719582 0.01352408
-0.014928253 -0.017476922 -0.02123565 -0.019827176 -0.023819247 0.013987284 0.024361014 -0.0068593672
-0.01683879 -0.011515043 -0.020623535 0.0008651466 0.0018155159 -0.022419114 0.00046672585 -0.0035965594
-0.008748844 0.017753785 0.011482602 0.0038328469 0.016044475 -0.02168044 -0.0058395583 0.0017912673
-0.017490722 0.015150419 0.022214139 -0.025851866 0.0031060341 0.015806312 -0.003596464 0.009728046
0.022104343 -0.0014391155 0.021603756 -0.024261128 0.0050240876 0.019779742 0.011850574 0.008536832
-0.001199305 0.0141743235 0.016187651 0.004276317 -0.010812031 -0.0058531784 -0.0340762 -0.004029827
-0.022869775 -0.0032886427 -0.024977613 0.010250453 0.026502045 0.014889388 -0.021031275 0.026999503
0.023439715 0.014579133 0.0045201285 0.0032202902 0.010452438 0.018427482 3.2909775e-05 0.024173688
0.02128888 -0.014124511 -0.0045375256 -0.026100244 -0.0074401153 0.0023211748 -0.00384019 -0.0075828866
0.014443358 -0.020584757 0.008675929 -0.0036012135 0.0028179078 0.0020923337 -0.0040452867 0.009515879
-0.033210095 -0.02575631 -0.017372185 0.0048070364 -0.003278057 0.0073812036 -0.021816542 0.012852067
-0.014342745 -0.011816544 -0.0057631796 -0.018094353 0.011449927 0.0007551686 0.0010456956 0.018240068
0.0032081066 -0.0055990173 -0.00784956 -0.0029346752 -0.014516274 0.011726277 -0.018029086 0.0004865811
-0.0125518795 -0.009001817 -0.010892073 0.023836778 4.1334053e-05 -0.00029684824 0.0012093333 -0.02166773
-0.014407589 0.023500428 0.014577189 -0.018667009 -0.013244127 0.019594852 -0.020789135 0.007065116
-0.023924502 -0.01570935 0.028351147 0.015611769 -0.012000697 0.021800276 -0.009268637 -0.007912593
0.009783914 -0.026259346 -0.003516204 0.014794967 0.019565789 -0.022072071 -0.009561804 -0.020504078
0.021994172 -0.011716206 0.019909192 0.011903968 0.02389099 0.028448852 -0.024783198 0.01230019
0.006192808 0.0072809295 -0.025923138 0.021341508 0.023545906 -0.008119717 0.016784469 -0.021156201
-0.00077510613 -0.0062880684 -0.0031732994 0.013928372 -0.0050822864 -0.008208983 -0.0079844035 -0.022206612
-0.02446909 -0.0020792487 -0.013027295 0.023744319 0.0020413713 0.02105169 -0.0029143484 -0.00021573831
-0.024392968 0.015568253 -0.022195019 -0.001296152 -0.017868761 -0.0009407469 0.017538747 -0.00666728
-0.036771826 0.012208274 0.02338261 -0.0140947625 0.017441722 0.01139299 0.019148862 0.01326353
0.002433141 0.028704956 0.0013904461 -0.023057451 -0.013933776 -0.024986979 0.009217479 -0.009878433
-0.007843187 -0.016487408 0.0067040417 0.0147057045 -0.006597883 0.003851993 0.0033508188 -0.018794293
-0.012956619 -0.025632953 0.012928809 -0.014371907 0.010103686 0.019285994 -0.0047985595 -0.008233386
0.0062791966 0.015925122 0.00017323377 -0.01059105 -0.011628746 0.0016089461 0.01879228 -0.014945347
0.016016075 -0.020558197 0.022587674 0.0073943483 -0.012700931 0.015137993 0.009402645 -0.01431152
-0.019027736 0.021533107 0.027779676 0.013128847 -0.0029528954 -0.022113355 0.029400162 0.0071831523
00000000: b1ca 9eba 8fef 05bb 63e5 c93a b458 89bc
00000010: 04c9 11bc 1f73 91bc 8c8e 35b9 3b17 7f3c
00000020: 7554 7bbb edee bc3b 25ed 08bc e185 90bc
00000030: a3da 203c e417 db3c c5b4 ecbc 1ede efbc
00000040: e7c5 5e3c 4a8f 8f3c 7503 94bc 6a7a 3ebc
00000050: ee3e 2bbc 9071 a8bc 19c8 60bc 1a94 5d3c
00000060: a295 74bc c32b 8fbc 63f6 adbc 9a6c a2bc
00000070: 9520 c3bc ec2a 653c c090 c73c 8bc4 e0bb
00000080: 81f1 89bc 97a9 3cbc b0f2 a8bc 01cb 623a
00000090: 9bf6 ed3a 4aa8 b7bc e2b2 f439 41b4 6bbb
000000a0: 5057 0fbc 6370 913c 8621 3c3c 8030 7b3b
000000b0: b46f 833c 2e9b b1bc c459 bfbb f5c8 ea3a
000000c0: b448 8fbc 7739 783c 6dfa b53c 4bc7 d3bc
000000d0: 9b8e 4b3b 3d7c 813c a7b2 6bbb 6262 1f3c
000000e0: 2b14 b53c b4a0 bcba 5cfa b03c 46bf c6bc
000000f0: 1aa1 a43b 2009 a23c e928 423c 12de 0b3c
00000100: 0032 9dba 6c3b 683c f79b 843c 5920 8c3b
00000110: f224 31bc 05cc bfbb 7c93 0bbd a40c 84bb
00000120: 6559 bbbc 4586 57bb da9d ccbc 84f1 273c
00000130: d11a d93c 9ff2 733c c849 acbc 102e dd3c
00000140: a504 c03c 51dd 6e3c 961d 943b 810b 533b
00000150: b440 2b3c 3bf5 963c 9a08 0a38 e607 c63c
00000160: 0466 ae3c 7e6a 67bc 86af 94bb 2ed0 d5bc
00000170: 36cc f3bb da1e 183b b2ab 7bbb dd79 f8bb
00000180: d6a3 6c3c 5da1 a8bc 7c25 0e3c 5602 6cbb
00000190: a6ac 383b 891f 093b 538e 84bb 7de8 1b3c
000001a0: 4f07 08bd e6fe d2bc 1d50 8ebc 5884 9d3b
000001b0: acd4 56bb 06de f13b 9bb8 b2bc 7a91 523c
000001c0: d5fd 6abc 2e9a 41bc 0ed9 bcbb 9c3a 94bc
000001d0: 7a98 3b3c 82f6 453a b90f 893a 326c 953c
000001e0: 193f 523b f677 b7bb 719b 00bc ae53 40bb
000001f0: abd5 6dbc 921f 403c bcb1 93bc cf1b ff39
00000200: 66a6 4dbc 5b7c 13bc aa74 32bc 5945 c33c
00000210: 1a5e 2d38 4ca2 9bb9 7e82 9e3a 8680 b1bc
00000220: cf0d 6cbc f883 c03c 2ad5 6e3c 8eeb 98bc
00000230: e5fd 58bc 6285 a03c fa4d aabc 7d82 e73b
00000240: 51fd c3bc e5b0 80bc aa40 e83c 81c8 7f3c
00000250: 929e 44bc 7e96 b23c 7bdb 17bc d2a3 01bc
00000260: b64c 203c d71d d7bc 1d70 66bb 9766 723c
00000270: 6f48 a03c 7dd0 b4bc 1da9 1cbc 2bf8 a7bc
00000280: 1f2d b43c 54f5 3fbc 9a18 a33c dc08 433c
00000290: 0ab7 c33c 910d e93c 2206 cbbc bc86 493c
000002a0: 0aed ca3b dd94 ee3b c35c d4bc 63d4 ae3c
000002b0: 58e3 c03c 9008 05bc 957f 893c c54f adbc
000002c0: 7e30 4bba 240c cebb 21f7 4fbb d433 643c
000002d0: 4f89 a6bb f87e 06bc 04d1 02bc a4ea b5bc
000002e0: 6773 c8bc 0144 08bb 6f70 55bc 7283 c23c
000002f0: 87c8 053b 9874 ac3c a7fe 3ebb d037 62b9
00000300: c3d3 c7bc fc11 7f3c 54d2 b5bc a5e3 a9ba
00000310: 8261 92bc 759c 76ba 6bad 8f3c 3379 dabb
00000320: 0e9e 16bd 3605 483c e38c bf3c b8ed 66bc
00000330: f1e1 8e3c aaa9 3a3c 13de 9c3c 474f 593c
00000340: 5575 1f3b a826 eb3c a13f b63a fbe2 bcbc
00000350: 7e4a 64bc 7eb1 ccbc e904 173c 27d9 21bc
00000360: b680 00bc 9a10 87bc 94ad db3b 32f0 703c
00000370: 0e33 d8bb b871 7c3b 6999 5b3b 7df6 99bc
00000380: 0048 54bc 33fc d1bc 5bd3 533c 2678 6bbc
00000390: ee89 253c a9fd 9d3c 3c3d 9dbb 53e5 06bc
000003a0: b8c1 cd3b 6775 823c 16a6 3539 1586 2dbc
000003b0: 7f86 3ebc 46e3 d23a 45f2 993c 54dd 74bc
000003c0: 2534 833c aa69 a8bc c909 b93c 4a4c f23b
000003d0: 9117 50bc 5805 783c 8d0d 1a3c de7a 6abc
000003e0: 0ee0 9bbc 3366 b03c 3492 e33c 601a 573c
000003f0: 5d85 41bb 1127 b5bc 9cd8 f03c a660 eb3b

layer1.bias f4 [32]
-0.00451636 -0.0039046123 0.004136971 0.01126372 -0.007125223 -0.013633662 -0.0030122641 -0.020536609
0.002747407 0.01756871 -0.009366386 -0.008507385 -0.014552233 0.028425006 0.0027636944 -0.0011308899
0.004376496 0.0063184644 0.016367933 0.018894905 -0.0051302044 0.00798484 0.0052872687 0.014405339
-0.015051587 0.012697487 0.0067227976 0.009294725 -0.018343585 -0.015753925 0.03256257 -0.025779141
00000000: f9fd 93bb 86e4 7fbb 6e8f 873b 778b 383c
00000010: b47a e9bb b95f 5fbc 6869 45bb 643c a8bc
00000020: d70d 343b 41ec 8f3c 7875 19bc 8f62 0bbc
00000030: 7d6c 6ebc 8fdb e83c 191f 353b 5e3a 94ba
00000040: b668 8f3b 1f0b cf3b 0b16 863c 7dc9 9a3c
00000050: 461b a8bb d9d2 023c d340 ad3b 5f04 6c3c
00000060: ee9a 76bc 1f09 503c ea4a dc3b e748 183c
00000070: 4945 96bc 600e 81bc 5460 053d c72e d3bc

layernorm1.weight f4 [32]
0.9938682 0.9983031 1.0000187 0.9875324 0.9986804 0.9990739 1.0067776 0.99263066
1.0117867 1.0492733 0.9905441 0.9922179 0.993608 1.0002098 1.0423871 0.9779978
0.97663087 1.0081619 1.0438203 1.0334846 0.9971902 1.0227036 0.9986833 1.000097
1.01934 0.9580821 0.9970628 1.0161221 1.0069213 0.9887589 1.0530865 1.0118396
00000000: 256e 7e3f cb90 7f3f 9d00 803f ecce 7c3f
00000010: 85a9 7f3f 4fc3 7f3f 17de 803f 0b1d 7e3f
00000020: 3a82 813f 964e 863f 4c94 7d3f fe01 7e3f
00000030: 185d 7e3f e006 803f f16c 853f 105e 7a3f
00000040: 7b04 7a3f 730b 813f e79b 853f 3949 843f
00000050: db47 7f3f f4e7 823f b5a9 7f3f 2e03 803f
00000060: bc79 823f de44 753f 823f 7f3f 4a10 823f
00000070: cce2 803f 4e1f 7d3f 8acb 863f f683 813f

layernorm1.bias f4 [32]
-0.0076513374 -0.007962099 0.0013732342 0.015079649 -0.0072619044 -0.0067380182 -0.0037600268 -0.0045771515
-0.00070095493 0.044627994 -0.005058953 -0.0072561237 -0.0043526106 0.012040463 0.027309816 0.0033391435
0.012221001 0.011077331 0.025639307 -0.0016120608 0.013257162 -0.0011680928 -0.007180266 0.0052402597
-0.00079596543 0.007387226 -0.0071274634 0.0036716284 0.00020928122 0.009503859 0.031434316 -0.0009305186
00000000: 12b8 fabb 7773 02bc 18fe b33a a210 773c
00000010: 45f5 edbb 98ca dcbb c86a 76bb eefb 95bb
00000020: 4ac0 37ba d8cb 363d 93c5 a5bb c7c4 edbb
00000030: 58a0 8ebb 5d45 453c d6b8 df3c 88d5 5a3b
00000040: 983a 483c b27d 353c 8609 d23c c94b d3ba
00000050: 9134 593c b11a 99ba 7048 ebbb 7cb6 ab3b
00000060: 56a8 50ba 8b10 f23b 7f8d e9bb b49f 703b
00000070: 8072 5b39 13b6 1b3c 45c1 003d 0cee 73ba

blocks.0.fcn_layer.weight f4 [32, 32]
-0.027807878 0.13846405 0.16167583 0.14121841 -0.0053871535 0.045555778 -0.037254862 -0.1590241
-0.100318104 0.094822615 -0.14224862 -0.062112864 0.103549816 0.15326525 0.06606293 -0.042080827
0.07293418 -0.0748714 -0.15357928 0.023914509 0.1520304 0.11260579 0.10316064 -0.006136479
0.005205061 0.0801781 -0.02029896 -0.15193945 0.06276667 0.15449731 -0.027035687 -0.024370803
-0.1592036 -0.017843472 0.13350084 0.08732783 0.06418168 0.09199161 0.08553869 0.027828122
-0.042028505 0.0017880051 0.11454545 0.100987285 -0.0403386 0.059774913 -0.0038264003 -0.04945067
-0.07607454 0.020769104 -0.07161013 0.012258814 0.0155710345 -0.019159738 0.0925041 0.055830624
0.060897227 0.00035146496 0.003937926 0.020043258 -0.09820218 -0.019978331 -0.119855136 0.027461616
0.04859846 -0.058936413 0.0923908 -0.13626829 0.03361249 0.0070055407 0.020874139 -0.11576089
-0.03177934 0.011271279 -0.1444183 -0.08304297 -0.0987133 -0.050985135 -0.036645986 0.115013
-0.0005441547 0.1829948 0.039099082 0.12383559 0.005009058 -0.17018831 0.16388413 0.18018198
0.090198725 0.12715688 0.02761418 -0.07090079 -0.02271427 -0.10589249 0.17489474 -0.18151571
-0.12832007 0.17349869 0.14702778 -0.10141025 -0.010747235 -0.15563945 0.038047116 -0.048136402
-0.06418516 0.014881939 0.06422715 -0.076028734 0.019411582 0.02949768 0.12294083 0.012155412
0.05125952 -0.037764825 -0.10659876 0.033442125 -0.046111412 0.055693317 0.12838471 -0.061579175
-0.09913314 0.08448607 0.10859262 -0.033378087 0.12822245 -0.08010211 -0.07188329 -0.072328165
0.10761198 0.026239246 -0.058074497 0.06317975 -0.13441774 -0.121589586 -0.10333943 0.010497597
-0.019227682 0.12665527 0.03750431 -0.072260484 0.056901537 0.07830935 0.05076758 -0.025640566
0.08257903 0.19778126 0.080646075 -0.13166371 -0.026507141 -0.0830825 -0.037660144 0.13107932
-0.062050663 0.10761631 0.12974447 -0.08461681 0.0470366 0.097535 -0.10272001 0.046202626
-0.018914903 0.053323504 -0.09153714 -0.12578037 -0.0068137655 0.101141185 -0.13548845 -0.02738092
-0.12351431 -0.018715419 0.07211793 0.14901532 0.09858934 -0.18570101 -0.16565801 0.13342047
0.0571347 -0.055471964 -0.082240224 -0.06986541 -0.09100968 -0.020369291 0.07970222 0.10514161
0.19191216 0.10103597 0.1329517 0.1322855 -0.03590592 0.08170396 0.09501437 0.069159664
0.06612453 0.13634425 0.003495704 0.0140638435 -0.112560555 -0.061712608 0.074106954 -0.029012715
0.17821869 0.08662065 -0.023855735 -0.04293571 0.10111747 0.105617605 -0.14615549 -0.04550327
-0.042845096 -0.11629537 0.10659954 0.16532093 0.07250037 0.020641103 -0.028331969 -0.11293517
0.09393024 0.002791406 0.13735683 0.11957621 0.16491461 -0.15445212 -0.041864727 0.18205869
0.16640136 0.17106941 0.10213811 0.031717174 0.030455085 -0.059612866 0.0054578255 -0.00011461079
-0.03896755 -0.012019693 0.11228314 -0.16108291 0.09205937 -0.017649947 0.10614639 -0.08492688
0.15817982 -0.02437588 0.0054688826 0.029342104 -0.091220334 0.014680097 -0.0307006 -0.00951506
0.03097963 0.12095411 -0.115589105 -0.109919086 -0.107505955 -0.1917704 -0.11164157 0.02425936
00000000: 59cd e3bc 85c9 0d3e 598e 253e 8f9b 103e
00000010: b886 b0bb b298 3a3d 8e98 18bd 37d7 22be
00000020: 9473 cdbd 5c32 c23d 9fa9 11be 0f6a 7ebd
00000030: ed11 d43d 91f1 1c3e 004c 873d f25c 2cbd
00000040: 845e 953d 2d56 99bd e343 1dbe 5ce8 c33c
00000050: dbad 1b3e dd9d e63d e345 d33d 8414 c9bb
00000060: 378f aa3b 6a34 a43d 014a a6bc 0496 1bbe
00000070: d08b 803d 8b34 1e3e f279 ddbc 47a5 c7bc
00000080: 4506 23be 792c 92bc 72b4 083e efd8 b23d
00000090: af71 833d 1966 bc3d e92e af3d cdf7 e33c
000000a0: 1526 2cbd 7f5b ea3a ce96 ea3d 6cd2 ce3d
000000b0: 163a 25bd 8ad6 743d 58c4 7abb c98c 4abd
000000c0: f8cc 9bbd f823 aa3c 55a8 92bd 31d9 483c
000000d0: a71d 7f3c e2f4 9cbc ca72 bd3d a7ae 643d
000000e0: 5f6f 793d d444 b839 b809 813b c231 a43c
000000f0: 391e c9bd 99a9 a3bc 9c76 f5bd 2ff7 e03c
00000100: 2e0f 473d 4f67 71bd 6337 bd3d ea89 0bbe
00000110: 40ad 093d bc8e e53b 3e00 ab3c 0c14 edbd
00000120: 0e2b 02bd 2cab 383c 64e2 13be 6f12 aabd
00000130: 332a cabd cad5 50bd 1a1a 16bd f08b eb3d
00000140: 9ba5 0eba fd62 3b3e 5c26 203d 849d fd3d
00000150: 0623 a43b d845 2ebe 3ed1 273e a081 383e
00000160: 1cba b83d 6a35 023e 2237 e23c 6f34 91bd
00000170: 4713 babc 29de d8bd 9b17 333e 41df 39be
00000180: 5666 03be a4a9 313e 738e 163e 2db0 cfbd
00000190: 2c15 30bc f35f 1fbe 4bd7 1b3d ad2a 45bd
000001a0: 8273 83bd 60d3 733c 8689 833d f4b4 9bbd
000001b0: 0a05 9f3c 1ea5 f13c 67c8 fb3d 7e27 473c
000001c0: 81f5 513d 4aaf 1abd 7350 dabd 9cfa 083d
000001d0: 52df 3cbd ad1e 643d 4877 033e 723a 7cbd
000001e0: 5106 cbbd 0807 ad3d cf65 de3d 76b7 08bd
000001f0: bf4c 033e 930c a4bd 8c37 93bd ca20 94bd
00000200: ab63 dc3d b0f3 d63c 86df 6dbd 6364 813d
00000210: cea4 09be f603 f9bd a0a3 d3bd 1dfe 2b3c
00000220: 5f83 9dbc ebb1 013e 1f9e 193d 4efd 93bd
00000230: 9611 693d a760 a03d aaf1 4f3d 2a0c d2bc
00000240: 321f a93d 2c87 4a3e c529 a53d dad2 06be
00000250: 8125 d9bc 2827 aabd 8641 1abd a839 063e
00000260: d628 7ebd f165 dc3d bcdb 043e 944b adbd
00000270: 73a9 403d 6ec0 c73d de5e d2bd f73e 3d3d
00000280: 6df3 9abc bf69 5a3d d377 bbbd 92cc 00be
00000290: 0246 dfbb 1c23 cf3d 7cbd 0abe f34d e0bc
000002a0: 12f5 fcbd 1451 99bc 91b2 933d 7997 183e
000002b0: 35e9 c93d 6828 3ebe 41a2 29be 609f 083e
000002c0: 1306 6a3d 9236 63bd 906d a8bd 9915 8fbd
000002d0: 4863 babd 80dd a6bc eb3a a33d 7c54 d73d
000002e0: 9f84 443e f2eb ce3d 7e24 083e da75 073e
000002f0: 1612 13bd 6854 a73d e596 c23d 95a3 8d3d
00000300: 4c6c 873d d49d 0b3e 2e18 653b 096c 663c
00000310: 2686 e6bd 5cc6 7cbd 63c5 973d 13ac edbc
00000320: f67e 363e 2b66 b13d 1a6d c3bc 5bdd 2fbd
00000330: ad16 cf3d 0b4e d83d c9a9 15be a361 3abd
00000340: 577e 2fbd 442c eebd dc50 da3d e449 293e
00000350: 137b 943d 8817 a93c 7218 e8bc 8e4a e7bd
00000360: 7f5e c03d 05f0 363b 45a7 0c3e 5fe4 f43d
00000370: 60df 283e b228 1ebe 597a 2bbd 986d 3a3e
00000380: 1e65 2a3e d22c 2f3e c92d d13d dee9 013d
00000390: f17c f93c 9f2c 74bd 8fd7 b23b 335b f0b8
000003a0: 709c 1fbd 3fee 44bc b4f4 e53d ebf2 24be
000003b0: 9f89 bc3d 9f96 90bc 4763 d93d 25ee adbd
000003c0: e4f9 213e edaf c7bc 5034 b33b da5e f03c
000003d0: bad1 babd ca84 703c d37f fbbc 0ee5 1bbc
000003e0: fec8 fd3c cab6 f73d fbb9 ecbd 421d e1bd
000003f0: 152c dcbd 765f 44be 56a4 e4bd 91bb c63c

blocks.0.fcn_layer.bias f4 [32]
-0.10927508 0.054513283 -0.06284658 0.09053571 -0.11392579 0.09359167 0.0014153579 -0.04277004
0.059282687 -0.003422595 -0.028725274 -0.0044511147 0.07125502 -0.092163205 -0.18993376 0.13211605
-0.11752822 -0.012506733 -0.15764321 -0.13535029 0.13219987 0.052374523 0.0070835524 -0.033210512
-0.13529561 -0.065243796 -0.07465623 -0.15381636 -0.07828793 -0.165539 0.0770362 0.043731216
00000000: 9dcb dfbd 5249 5f3d b5b5 80bd c96a b93d
00000010: ed51 e9bd fdac bf3d 8883 b93a a32f 2fbd
00000020: 67d2 723d 9e4d 60bb 4451 ebbc a8da 91bb
00000030: 27ee 913d 10c0 bcbd ff7d 42be 6e49 073e
00000040: a3b2 f0bd 0ae9 4cbc 396d 21be 4499 0abe
00000050: 675f 073e ab86 563d 251d e83b bf07 08bd
00000060: ef8a 0abe 8a9e 85bd 5ee5 98bd 0982 1dbe
00000070: 6c55 a0bd 0e83 29be 28c5 9d3d 811f 333d

blocks.0.layer_norm.weight f4 [32]
1.1689979 0.9985296 1.2376509 1.0312268 1.1963723 1.0017408 1.0141569 1.0236976
0.99391335 1.4147035 1.0347095 1.0079222 1.0254223 1.0001057 0.99731845 1.2320409
1.2469119 1.2321708 1.0224055 1.0173084 1.0545897 1.0459062 1.0211395 1.0264959
1.2958345 1.0120668 1.2663498 1.026637 1.0356632 1.0954628 1.2338036 1.0118784
00000000: b9a1 953f a39f 7f3f 586b 9e3f 3dff 833f
00000010: ba22 993f 0b39 803f e5cf 813f 8608 833f
00000020: 1b71 7e3f 0115 b53f 5c71 843f 9803 813f
00000030: 0a41 833f 7703 803f 4350 7f3f 84b3 9d3f
00000040: cf9a 9f3f c6b7 9d3f 2fde 823f 2937 823f
00000050: ccfc 863f 41e0 853f b3b4 823f 3864 833f
00000060: e8dd a53f 688b 813f c017 a23f d768 833f
00000070: 9d90 843f 2038 8c3f 47ed 9d3f 3b85 813f

blocks.0.layer_norm.bias f4 [32]
0.23491964 -4.869492e-05 0.2318411 0.015102244 0.22041546 0.0036127053 0.00253438 0.0104113035
-0.0045608506 0.30764753 0.018772004 0.002812942 0.0043439413 0.0015257116 -0.0033545634 0.24389471
0.23170406 0.23205622 0.013443309 0.025935533 0.014563813 0.035115935 0.01409956 0.012262635
0.26191565 0.016382253 0.24342784 0.008071103 0.046828974 0.05635188 0.23015352 0.00059308927
00000000: c68e 703e c63d 4cb8 c167 6d3e 676f 773c
00000010: 97b4 613e 23c3 6c3b d717 263b 2c94 2a3c
00000020: 3073 95bb fa83 9d3e bfc7 993c 5659 383b
00000030: 9f57 8e3b 63fa c73a 3cd8 5bbb 89bf 793e
00000040: d443 6d3e 25a0 6d3e 5341 5c3c c176 d43c
00000050: 0f9d 6e3c bad5 0f3d d701 673c 38e9 483c
00000060: cf19 863e 1334 863c 2645 793e a93c 043c
00000070: bdcf 3f3d 3bd1 663d 5dad 6b3e 8c79 1b3a

last_layer.weight f4 [1, 32]
-0.21779601 0.012166114 -0.35057253 0.049339682 -0.34771597 -0.056036316 0.14701769 0.1728783
-0.00091307744 -0.3771769 0.10328606 0.11601108 0.12224718 0.1334325 0.003991231 -0.2710663
-0.36360672 -0.3783243 0.18446127 -0.011099605 0.16643004 0.14294638 0.032890294 0.09188041
-0.32386243 0.081841305 -0.3703247 0.14970256 0.028695937 0.18094291 -0.3793254 0.14424881
00000000: eb05 5fbe 6154 473c 3e7e b3be 6818 4a3d
00000010: d407 b2be 5686 65bd ce8b 163e 0207 313e
00000020: 975b 6fba 551d c1be a487 d33d 3897 ed3d
00000030: bb5c fa3d 87a2 083e dfc8 823b 34c9 8abe
00000040: a92a babe b9b3 c1be 6ae3 3c3e 1edb 35bc
00000050: a36c 2a3e 8960 123e f9b7 063d cc2b bc3d
00000060: 4cd1 a5be 6a9c a73d 339b bdbe a14b 193e
00000070: be13 eb3c 1949 393e f036 c2be f6b5 133e
